saved_model/model_1.pkl (torch_old, 6924 bytes, 3 tensors)

weight f4 [10, 1]
0	0x3e83e3e1	0.25759795
1	0x3f2a6958	0.6656699
2	0xbf0506c6	-0.5196346
3	0x3e0f0e30	0.13970256
4	0xbeaf3d67	-0.34226534
5	0xbdeac558	-0.114634216
6	0xbf4c3a9c	-0.7977693
7	0xbee9960e	-0.45622295
8	0xbec84b1a	-0.39119798
9	0x3ed0132f	0.40639636

bias f4 [10]
0	0x3e8352f5	0.2564923
1	0x3e5b4bcc	0.21415633
2	0x3f786e82	0.9704362
3	0x3f841491	1.0318776
4	0x3f23f9a9	0.64052826
5	0xbd3b62cf	-0.045748528
6	0xbf30de84	-0.6908953
7	0x3f42009c	0.7578218
8	0xbe1e56e9	-0.15462841
9	0xbdc9f626	-0.09861402

weight f4 [1, 10]
0	0xbe87c000	-0.26513672
1	0x3dee4be8	0.11635572
2	0x3d541df3	0.051786374
3	0x3eda683a	0.42657644
4	0xbdcc8839	-0.0998692
5	0xbe1f400a	-0.15551773
6	0x3c7df7cd	0.015500975
7	0x3d1aa2b8	0.037752837
8	0x3e3ae5de	0.1825175
9	0x3cb75536	0.022379499
